…
      "--------------------------------------------------------------------------------------------------------------\n",
      "\n",
      "\n",
      "Input data MNIST\n",
      "Leaky relu parameter =  0.1\n",
      "BatchSize            =  64\n",
      "Nepochs              =  300 \n",
      "\n",
      "Model: \"sequential_3\"\n",
      "_________________________________________________________________\n",
      " Layer (type)                Output Shape              Param #   \n",
      "=================================================================\n",
      " lambda_3 (Lambda)           (0, 64, 64, 3)            0         \n",
      "                                                                 \n",
      " conv2d_11 (Conv2D)          (0, 64, 64, 64)           1792      \n",
      "                                                                 \n",
      " max_pooling2d_11 (MaxPoolin  (0, 32, 32, 64)          0         \n",
      " g2D)                                                            \n",
      "                                                                 \n",
      " dropout_16 (Dropout)        (0, 32, 32, 64)           0         \n",
      "                                                                 \n",
      " conv2d_12 (Conv2D)          (0, 32, 32, 128)          73856     \n",
      "                                                                 \n",
      " max_pooling2d_12 (MaxPoolin  (0, 16, 16, 128)         0         \n",
      " g2D)                                                            \n",
      "                                                                 \n",
      " dropout_17 (Dropout)        (0, 16, 16, 128)          0         \n",
      "                                                                 \n",
      " conv2d_13 (Conv2D)          (0, 16, 16, 128)          147584    \n",
      "                                                                 \n",
      " max_pooling2d_13 (MaxPoolin  (0, 8, 8, 128)           0         \n",
      " g2D)                                                            \n",
      "                                                                 \n",
      " dropout_18 (Dropout)        (0, 8, 8, 128)            0         \n",
      "                                                                 \n",
      " conv2d_14 (Conv2D)          (0, 8, 8, 256)            295168    \n",
      "                                                                 \n",
      " max_pooling2d_14 (MaxPoolin  (0, 4, 4, 256)           0         \n",
      " g2D)                                                            \n",
      "                                                                 \n",
      " dropout_19 (Dropout)        (0, 4, 4, 256)            0         \n",
      "                                                                 \n",
      " flatten_3 (Flatten)         (0, 4096)                 0         \n",
      "                                                                 \n",
      " dense_8 (Dense)             (0, 256)                  1048832   \n",
      "                                                                 \n",
      " dropout_20 (Dropout)        (0, 256)                  0         \n",
      "                                                                 \n",
      " dense_9 (Dense)             (0, 128)                  32896     \n",
      "                                                                 \n",
      " dropout_21 (Dropout)        (0, 128)                  0         \n",
      "                                                                 \n",
      " dense_10 (Dense)            (0, 8)                    1032      \n",
      "                                                                 \n",
      "=================================================================\n",
      "Total params: 1,601,160\n",
      "Trainable params: 1,601,160\n",
      "Non-trainable params: 0\n",
      "_________________________________________________________________\n",
      "Epoch 1/300\n"
     ]
    },
    {
     "name": "stderr",
…
      "--------------------------------------------------------------------------------------------------------------\n",
      "\n",
      "\n",
      "Input data MNIST\n",
      "Dropout values       =  0.6\n",
      "Leaky relu parameter =  0.1\n",
      "BatchSize            =  128\n",
      "Nepochs              =  30 \n",
      "\n",
      "Model: \"sequential_4\"\n",
      "_________________________________________________________________\n",
      " Layer (type)                Output Shape              Param #   \n",
      "=================================================================\n",
      " lambda_4 (Lambda)           (0, 128, 128, 3)          0         \n",
      "                                                                 \n",
      " conv2d_15 (Conv2D)          (0, 128, 128, 16)         448       \n",
      "                                                                 \n",
      " max_pooling2d_15 (MaxPoolin  (0, 64, 64, 16)          0         \n",
      " g2D)                                                            \n",
      "                                                                 \n",
      " dropout_22 (Dropout)        (0, 64, 64, 16)           0         \n",
      "                                                                 \n",
      " conv2d_16 (Conv2D)          (0, 64, 64, 32)           4640      \n",
      "                                                                 \n",
      " max_pooling2d_16 (MaxPoolin  (0, 32, 32, 32)          0         \n",
      " g2D)                                                            \n",
      "                                                                 \n",
      " dropout_23 (Dropout)        (0, 32, 32, 32)           0         \n",
      "                                                                 \n",
      " conv2d_17 (Conv2D)          (0, 32, 32, 64)           18496     \n",
      "                                                                 \n",
      " max_pooling2d_17 (MaxPoolin  (0, 16, 16, 64)          0         \n",
      " g2D)                                                            \n",
      "                                                                 \n",
      " dropout_24 (Dropout)        (0, 16, 16, 64)           0         \n",
      "                                                                 \n",
      " flatten_4 (Flatten)         (0, 16384)                0         \n",
      "                                                                 \n",
      " dense_11 (Dense)            (0, 128)                  2097280   \n",
      "                                                                 \n",
      " dropout_25 (Dropout)        (0, 128)                  0         \n",
      "                                                                 \n",
      " dense_12 (Dense)            (0, 2)                    258       \n",
      "                                                                 \n",
      "=================================================================\n",
      "Total params: 2,121,122\n",
      "Trainable params: 2,121,122\n",
      "Non-trainable params: 0\n",
      "_________________________________________________________________\n",
      "Epoch 1/30\n"
     ]
    },
    {
     "name": "stderr",
…
